data.pth (torch_old, 4214 bytes, 6 tensors)

l1.weight f4 [8, 55]
0	0x3f021c52	0.50824463
1	0x3e589222	0.21149495
2	0xbe4eecf0	-0.20207572
3	0xbd86c5a0	-0.06580663
4	0x3edfb4b1	0.43692544
5	0x3e51de48	0.2049495
6	0xbf2903ff	-0.6602172
7	0xbe9386e6	-0.28813857
8	0xbe01ac40	-0.12663364
9	0xbec61909	-0.38690975
10	0xbd1599c3	-0.03652359
11	0x3eacce21	0.33751014
12	0x3f475b04	0.77873254
13	0xbee796a0	-0.45232105
14	0x3f28dd85	0.6596301
15	0x3e8c6254	0.27418768
16	0xbf27f4c8	-0.6560788
17	0x3f0e0308	0.55473375
18	0x3e9e6c01	0.30941775
19	0x3f115246	0.56766164
20	0x3f1a7a2a	0.6034266
21	0x3eee6980	0.46564865
22	0x3f1b7955	0.60732013
23	0xbe014f55	-0.12627919
24	0xbd4b020e	-0.049562506
25	0x3d95564f	0.07291853
26	0x3effc962	0.4995833
27	0xbeb608a2	-0.3555346
28	0x3ea3d5d9	0.3199909
29	0xbe387dee	-0.18016788
30	0x3f16480f	0.587037
31	0x3f7743a2	0.96587574
32	0x3f48dcb8	0.7846179
33	0xbe12fe83	-0.14354901
34	0xbe910604	-0.28324902
35	0xbf06c237	-0.526401
36	0xbe8352a1	-0.25648978
37	0xbea20228	-0.3164227
38	0xbe726604	-0.23671728
39	0xbef40dc8	-0.47666764
40	0xbe60d0ec	-0.21954697
41	0x3f5b33a7	0.8562569
42	0x3ec7b11a	0.39002305
43	0xbc95b98a	-0.018276948
44	0x3ef380b8	0.47559142
45	0xbe018e61	-0.1265197
46	0x3f07e510	0.53083897
47	0xbd1b257b	-0.03787754
48	0xbec3d8bc	-0.38251293
49	0xbc9a7bf1	-0.018857928
50	0xbe4dfba9	-0.20115532
51	0xbecc3076	-0.39880723
52	0xbdf21458	-0.118202865
53	0x3e1f53fb	0.1555938
54	0xbe911048	-0.28332734
55	0x3ea3117c	0.31849277
56	0x3ecb88cf	0.39752814
57	0xbdf57423	-0.11985042
58	0x3ee5aa48	0.44856477
59	0x3e4df758	0.20113885
60	0xbc2eef80	-0.010677218
61	0x3df1fa0b	0.1181527
62	0x3e16404a	0.14672962
63	0x3c375989	0.01119078
64	0xbe98e4a9	-0.29861954
65	0xbd368597	-0.044560995
66	0x3ed4c906	0.4155962
67	0xbe7f8dbc	-0.24956411
68	0xbecb6c1d	-0.3973092
69	0xbe6776fe	-0.22603986
70	0x3ed4ad4e	0.4153847
71	0x3e5e9d4c	0.21739691
72	0x3ee13b77	0.4399068
73	0x3eee87f8	0.4658811
74	0x3f02551e	0.5091113
75	0x3f028b05	0.50993377
76	0x3e903522	0.28165537
77	0xbe65d335	-0.2244385
78	0x3f042752	0.516225
79	0x3ed626b9	0.41826418
80	0x3f054a93	0.52066916
81	0xbe583482	-0.2111378
82	0x3d6cf931	0.057854835
83	0x3e60d95d	0.21957918
84	0xbd09fb59	-0.03368697
85	0xbe2a30b1	-0.16620137
86	0xbeaa5aba	-0.33272344
87	0xbe2a461f	-0.16628312
88	0x3ec72552	0.3889566
89	0x3f2e1586	0.6800159
90	0xbe5798a8	-0.21054327
91	0xbd0f0ffd	-0.034927357
92	0x3d7e9259	0.062151287
93	0xbeeb05e0	-0.4590292
94	0x3cdfd7cb	0.027324578
95	0xbd2ad1c3	-0.04170395
96	0x3f62e162	0.88625157
97	0x3f0849db	0.53237695
98	0xbcd93817	-0.026516004
99	0x3e9996dd	0.29997912
100	0xbebe9fe1	-0.37231353
101	0xbd1da02f	-0.03848284
102	0xbe73c20f	-0.23804496
103	0xbe087cfe	-0.1332893
104	0x3ed0654a	0.40702277
105	0xbeacf08c	-0.33777273
106	0xbd59d00b	-0.05317692
107	0xbeba7d17	-0.3642356
108	0x3e3a7b2d	0.1821105
109	0x3f1662b3	0.58744353
110	0x3f1b9d83	0.6078722
111	0x3dfd242f	0.12360417
112	0xbec90931	-0.39264825
113	0xbecce13f	-0.400156
114	0xbdcc32c1	-0.09970618
115	0x3d9d7485	0.0768824
116	0x3f09f19d	0.538843
117	0xbe5674ed	-0.20943041
118	0xbe5d19c9	-0.21591868
119	0xbe3d2324	-0.18470436
120	0xbe196c53	-0.14982729
121	0xbea53103	-0.32263955
122	0x3f298637	0.6622042
123	0x3ea6080a	0.32428008
124	0x3ed08b77	0.40731403
125	0xbdff870e	-0.124769315
126	0x3f287ed0	0.658185
127	0xbee51533	-0.44742736
128	0x3e4420de	0.19153163
129	0xbee51e72	-0.4474979
130	0xbee51735	-0.44744268
131	0xbeeaa41d	-0.45828333
132	0x3ec338be	0.38129228
133	0xbdf26211	-0.11835111
134	0x3dcf31eb	0.10116943
135	0xbe159f2f	-0.14611505
136	0x3ed4b596	0.4154479
137	0x3f0856d8	0.53257513
138	0x3e9db116	0.30799168
139	0xbe890e3c	-0.26768672
140	0x3ebfc419	0.37454298
141	0x3f2963bd	0.66167814
142	0x3f06165e	0.5237788
143	0xbeceebbe	-0.40414232
144	0xbe3b6a2c	-0.1830222
145	0xbe8c9025	-0.27453724
146	0xbe9aa0d2	-0.3020082
147	0xbe34b28c	-0.17646235
148	0x3f099fc6	0.5375942
149	0x3ec6b511	0.38810018
150	0xbea9634a	-0.33083564
151	0x3f236acd	0.6383484
152	0x3ead295e	0.33820623
153	0x3edfa58b	0.43680987
154	0xbe4e6596	-0.2015594
155	0x3f5a545e	0.85284984
156	0x3ede05d6	0.43363827
157	0x3f028de7	0.50997776
158	0xbe9c9eb5	-0.30589834
159	0xbc664b4a	-0.014056036
160	0x3f6d197b	0.92617005
161	0xbe102a22	-0.14078572
162	0xbd226c14	-0.039653853
163	0xbd85804d	-0.06518612
164	0xbe4bebe4	-0.19914204
165	0x3f0114cc	0.5042236
166	0x3e9b7877	0.30365345
167	0xbee896cf	-0.45427558
168	0x3e03d5a6	0.12874469
169	0x3e864179	0.26221827
170	0x3dac4306	0.08411221
171	0xbea04526	-0.31302756
172	0xbbec0d79	-0.0072037545
173	0xbe540e60	-0.20708609
174	0xbf02e7ec	-0.51135135
175	0xbe913848	-0.28363252
176	0x3e5b5028	0.21417296
177	0xbde8a47b	-0.11359497
178	0x3e83576f	0.25652644
179	0xbe6b4ae4	-0.22977787
180	0x3e552b3a	0.20817271
181	0xbe884c13	-0.2662054
182	0x3ee9d2cf	0.45668647
183	0x3f23d33d	0.639942
184	0x3e51305a	0.20428601
185	0x3ec38d5e	0.38193792
186	0x3e369cb4	0.17833215
187	0xbe6a9b6b	-0.2291085
188	0x3e94543d	0.2897052
189	0x3ed347e3	0.41265783
190	0x3ee94d92	0.45566994
191	0x3ca4f095	0.02013425
192	0xbdf97b4f	-0.121817224
193	0x3edee01b	0.43530354
194	0xbeec496e	-0.46149772
195	0xbe298747	-0.1655551
196	0xbe40aa06	-0.18814859
197	0xbe297d77	-0.16551767
198	0x3e38d8ff	0.18051527
199	0x3ee43bbc	0.44576824
200	0xbedcceea	-0.43126613
201	0xbe1c5d91	-0.15270068
202	0xbe56d4b6	-0.2097958
203	0xbe9fa7c0	-0.3118267
204	0x3cc12a86	0.023579847
205	0xbee925d4	-0.45536673
206	0x3f99a2c7	1.2002801
207	0x3f13ec1c	0.5778215
208	0xbe807257	-0.25087234
209	0x3eaeee53	0.34166202
210	0xbe3bf4dc	-0.18355125
211	0xbe08da67	-0.13364564
212	0x3de90064	0.11377028
213	0x3f6b7a03	0.9198305
214	0x3e8d7d33	0.27634582
215	0x3e2f19d8	0.17099702
216	0xbdc82e14	-0.09774414
217	0x3e7221c9	0.236457
218	0x3e265f93	0.16247396
219	0x3f116192	0.56789505
220	0x3ead035d	0.33791628
221	0x3eb26c00	0.34848022
222	0x3e64ebe9	0.22355618
223	0x3ef0fd71	0.4706836
224	0xbe8b5a0a	-0.27217132
225	0xbebfba29	-0.37446716
226	0x3f7ed16b	0.99538296
227	0xbdc38856	-0.095474884
228	0x3e91ac56	0.28451794
229	0x3da9a96a	0.08284266
230	0x3e1fc1c4	0.1560126
231	0xbeb89f1b	-0.36058888
232	0x3ecb2ce7	0.39682695
233	0xbf00823b	-0.50198716
234	0x3ec2495e	0.379466
235	0xbea4c5ec	-0.32182252
236	0x3f587029	0.8454614
237	0xbf4449a8	-0.7667489
238	0x3ebf8172	0.37403446
239	0xbf1f6500	-0.6226349
240	0xbef293b5	-0.47378317
241	0xbee58053	-0.44824466
242	0x3e9a7b45	0.30172172
243	0x3eaf95ed	0.34294072
244	0x3ea456a1	0.32097343
245	0xbdcdfdb6	-0.10058157
246	0x3ec8c04e	0.39209217
247	0x3f2ecbf2	0.68279946
248	0x3ecf5c4d	0.40500107
249	0x3e129b4f	0.14317058
250	0x3e8c054c	0.2734779
251	0x3f0b4cb5	0.5441392
252	0x3eb6d1bf	0.357069
253	0x3ee74499	0.45169523
254	0x3f01cddd	0.5070475
255	0x3de1df99	0.11028976

l1.bias f4 [8]
0	0x3f2dac49	0.6784101
1	0x3f791953	0.97304267
2	0x3ee51391	0.4474149
3	0x3f323ef2	0.69627297
4	0x3f4ac797	0.792108
5	0x3ef46c6a	0.47738963
6	0x3f2c9f40	0.67430496
7	0xbdceba15	-0.10094086

l2.weight f4 [8, 8]
0	0xbf0a7ed2	-0.5409976
1	0x3f82ff12	1.0234091
2	0xbf58578d	-0.8450859
3	0x3eb0341f	0.34414765
4	0x3f348da7	0.70528644
5	0x3fc67453	1.5504249
6	0x3f6f30cf	0.9343385
7	0xbe10bbc4	-0.14134127
8	0x3d72d543	0.059285413
9	0x3e523cfc	0.20531076
10	0x3eab36fc	0.33440387
11	0x3f8743bc	1.0567546
12	0xbf8548d1	-1.0412847
13	0xbebde2bc	-0.37087047
14	0x3f90d997	1.1316403
15	0xbe997022	-0.29968363
16	0x3f3cc46b	0.7373721
17	0x3f5b3382	0.8562547
18	0xbf66240f	-0.8989877
19	0x3f86c23f	1.0528029
20	0xbecade68	-0.39622808
21	0xbea5cb05	-0.32381454
22	0x3efc51ed	0.49281254
23	0xbce1342e	-0.027490702
24	0x3fac322a	1.3452809
25	0x3eab3975	0.33442274
26	0xbe860b12	-0.2618032
27	0x3f33e3fd	0.7026976
28	0xbde26e30	-0.11056173
29	0xbf4d716d	-0.802512
30	0xbd559ef4	-0.052153543
31	0x3cb475a1	0.022028746
32	0x3f350edd	0.70725805
33	0x3f2c500a	0.6730963
34	0xbf76a33c	-0.96342826
35	0xbdd00aa2	-0.10158278
36	0xbf40874b	-0.7520644
37	0xbf63b1b3	-0.8894302
38	0x3f66bbaf	0.9013013
39	0xbe6e906a	-0.23297277
40	0xbe002f30	-0.12518
41	0x3f84681e	1.0344274
42	0x3d72b7db	0.05925737
43	0x3f6e5c24	0.93109345
44	0x3f547734	0.8299439
45	0x3c9b50a3	0.018959349
46	0xbfb511ad	-1.4146019
47	0x3e401692	0.1875861
48	0xbf3a8857	-0.7286429
49	0x3dd117e7	0.10209637
50	0x3eab6b06	0.3348009
51	0x3f1ff314	0.6248028
52	0xbdc3d5b6	-0.095622465
53	0xbf4aa25e	-0.79154
54	0x3f9db6e3	1.2321438
55	0xbea98528	-0.33109403
56	0x3f90beba	1.1308205
57	0x3f0baee5	0.5456374
58	0x3faa48c9	1.3303462
59	0xbe18ac2e	-0.14909431
60	0x3f9eea0c	1.2415175
61	0xbf811fec	-1.0087867
62	0x3ebed2da	0.37270242
63	0xbdab84bc	-0.083749264

l2.bias f4 [8]
0	0x3f3f9baf	0.7484693
1	0x3e419a80	0.18906593
2	0x3a98b6fd	0.0011651214
3	0x3e2f5bea	0.17124906
4	0x3d962b97	0.07332533
5	0x3d6bbc4d	0.057552624
6	0x3f4376d6	0.76353204
7	0x3f2a4106	0.6650547

l3.weight f4 [8, 8]
0	0x3e80032a	0.25002414
1	0xbed38b42	-0.41317183
2	0x3de2017d	0.1103544
3	0xbee9d003	-0.45666513
4	0xbf2c628e	-0.6733788
5	0x3f684b56	0.90739954
6	0xbf9ca27e	-1.2237089
7	0xbf338674	-0.70127034
8	0x3cf41a3c	0.029797666
9	0xbf8fbac5	-1.1228873
10	0xbfb8ffce	-1.4453065
11	0xbfa0f6d9	-1.2575332
12	0xbf4dfcb3	-0.80463713
13	0x3f173c74	0.5907662
14	0x3f209e57	0.6274161
15	0x3f158523	0.58406276
16	0xbeee0808	-0.46490502
17	0x3e9d6fe0	0.30749416
18	0x3f10619b	0.56398934
19	0x3f2973ea	0.66192496
20	0x3f95893f	1.1682509
21	0xbf0c68f7	-0.54847664
22	0xbcba10bf	-0.022713063
23	0xbeb21170	-0.3477893
24	0x3e41e44b	0.18934743
25	0x3f0eeff3	0.55834883
26	0x3f268eef	0.6506185
27	0xbf098660	-0.53720665
28	0xbfa6078d	-1.2971054
29	0xbeeb04b3	-0.45902023
30	0x3ecdfb48	0.40230775
31	0xbfa3eb96	-1.280627
32	0xbf8ff9fe	-1.1248167
33	0xbe830346	-0.25588435
34	0xbf7db923	-0.9911062
35	0x3f201067	0.6252503
36	0xbeebd87e	-0.46063608
37	0xbf03c60a	-0.5147406
38	0xbf875bef	-1.0574931
39	0x3f51f23a	0.82010233
40	0x3f94e711	1.1633016
41	0xbf898c0c	-1.0745864
42	0xbf93e4c8	-1.1554193
43	0xbed2cb00	-0.41170502
44	0xbf3bc485	-0.7334674
45	0xbf9a920d	-1.2075821
46	0xbf549b36	-0.83049333
47	0xbf4abf88	-0.79198503
48	0xbf820504	-1.0157781
49	0x3f6c6dd6	0.92355096
50	0xbf4ecd15	-0.8078168
51	0xbf0805b9	-0.5313373
52	0xbf1d199d	-0.6136721
53	0xbf8dbf2b	-1.1073965
54	0x3f5e04e1	0.86726195
55	0x3ead8b54	0.3389536
56	0xbf2fd17f	-0.6867904
57	0x3e339e75	0.17540915
58	0x3e8ac5a2	0.27103907
59	0x3f0cee68	0.5505128
60	0xbfc61f99	-1.5478393
61	0x3f3fa08a	0.7485434
62	0xbf03cc9e	-0.51484096
63	0x3e3517ba	0.17684832

l3.bias f4 [8]
0	0xbf055ee7	-0.52097934
1	0x3e8bb26e	0.2728457
2	0xbed5379b	-0.41643986
3	0xbbff95cf	-0.007799841
4	0xbe8835e8	-0.26603627
5	0x3f0f77b2	0.56042016
6	0xbb10d48c	-0.0022099344
7	0xbec05830	-0.37567282
